DeployToProduction/PhishingSites/DLnet_PhishingData.onnx (onnx, 5186 bytes, 6 tensors)

linear1.weight f4 [15, 49]
28.132687 -2.8202646 0.055637263 -1.9822761 -2.1281981 4.813567 3.7273383 11.546624
6.870288 6.0374827 7.310315 3.342442 4.5135126 8.6320715 -1.4310616 -3.6490016
-1.6555083 11.4219675 7.54608 -4.4323254 -0.06534314 -1.0874664 0.96752244 4.291163
8.627915 7.198755 6.620004 2.6514003 1.3410399 4.238016 -1.0875391 0.2991377
3.5535092 5.4390264 4.6219306 3.1415274 5.545407 8.298467 8.38323 7.0628514
2.3506444 7.040975 7.7275414 -6.9806333 0.9266971 -0.3014756 -0.69685894 1.1748254
2.7034173 -51.380054 0.32446027 0.537777 1.1041701 1.4291946 -1.6051221 1.793156
-1.6675439 -0.49370274 -1.1297636 -0.9769776 1.1976699 -0.8704937 -0.25364998 1.2955496
-0.24566364 0.039529424 -1.1455909 0.52138066 -0.06881138 0.12972404 0.9244321 0.020024043
0.30950576 0.15242086 0.78721696 0.7075256 -2.0643985 -1.1344343 -0.32742482 1.109557
-0.33789232 -0.24123318 -0.9758297 -0.3088556 2.3304935 -0.010922035 0.41948378 -1.5388978
-1.910437 -1.3312397 0.8803187 -0.31426886 1.0544668 1.1324003 0.39359686 0.2120352
-0.25816774 -2.373045 -43.453808 3.5020459 -3.5981817 2.956406 -0.9790656 0.9251007
0.50577915 -1.5637952 0.5838289 -0.10270645 0.16413304 0.5089602 -0.18727246 0.51935846
-2.2616458 -0.10674447 -0.62468624 -0.83122677 0.70821035 -1.1541903 -0.07332015 4.893848
-0.07644393 -0.3240596 -0.816532 0.46463466 -0.3030374 -1.2175618 -0.71819806 2.4274178
1.4257215 0.010154626 -0.44121203 0.014970803 0.9227149 2.2853107 0.49869472 0.3583614
-1.2589824 -1.4017051 -1.771336 1.176867 -0.20478843 0.26236123 3.1380198 0.044996545
-0.36919454 3.8947732 -4.4711666 -48.68873 1.1136053 -0.73798066 3.1055186 1.2645503
1.1546844 1.4663446 -1.8742377 0.38501838 -0.7445465 -0.5296305 -1.8497362 -1.5666957
-1.2302402 -3.1417844 2.1051474 0.36899817 -1.6017724 0.043111857 0.66659176 0.10466735
1.5464828 -2.8387513 0.5871634 -0.29920205 2.3260777 -0.38518393 -2.053066 -0.65708756
1.7050244 1.7813245 -0.36358696 -0.47801372 -0.15036651 0.014602333 1.4352059 0.67574817
-0.61171114 -1.723767 -2.1941974 -0.72816086 0.88005644 -0.6397493 0.47724053 1.9878758
0.23967586 -1.0004139 2.5424972 -2.8092525 -35.42738 2.3032174 -2.7835164 2.131708
1.5995661 -0.69535774 -0.3589483 -1.0872201 1.0064149 -1.3168225 0.32731366 -0.47340378
0.43564883 0.61647964 -3.0940711 0.34835947 -0.41635042 -0.6999103 0.71265745 -0.039078306
0.06987792 2.0038586 -1.4949747 -0.7977436 -0.6982448 0.69910467 -0.61083484 -0.92486084
0.22075917 1.0339243 3.166433 -1.4810017 -0.7337292 0.08497537 1.7255424 2.4328027
0.035093356 0.17950007 -1.0379692 -1.0230966 -3.1356487 1.3894525 -0.40831238 0.42737266
1.3370818 -0.33878043 -0.32554156 2.6760862 -3.3777251 -42.065926 3.813974 -1.495975
3.6322136 -1.3044467 0.10369608 5.0667777 2.2860916 3.5343444 0.057693414 1.2471596
00000000: be0f e141 377f 34c0 e6e3 633d 39bb fdbf
00000010: 6634 08c0 be08 9a40 b68c 6e40 f9be 3841
00000020: 66d9 db40 0f33 c140 1aee e940 92ea 5540
00000030: b26e 9040 f71c 0a41 072d b7bf 3e89 69c0
00000040: b2e7 d3bf 61c0 3641 7d79 f140 9cd5 8dc0
00000050: a0d2 85bd 1932 8bbf 8daf 773f 3551 8940
00000060: f10b 0a41 335c e640 13d7 d340 8bb0 2940
00000070: 32a7 ab3f d49d 8740 7b34 8bbf 9428 993e
00000080: b26c 6340 810c ae40 dbe6 9340 c90e 4940
00000090: f973 b140 85c6 0441 b621 0641 e102 e240
000000a0: f570 1640 ab4f e140 0548 f740 5961 dfc0
000000b0: 053c 6d3f 035b 9abe 5965 32bf ae60 963f
000000c0: ca04 2d40 2d85 4dc2 a81f a63e c1ab 093f
000000d0: 7255 8d3f d9ef b63f a474 cdbf 2386 e53f
000000e0: 1472 d5bf 9bc6 fcbe 189c 90bf 341b 7abf
000000f0: 3f4d 993f add8 5ebf 69de 81be 92d4 a53f
00000100: 408f 7bbe 9be9 213d b9a2 92bf 3479 053f
00000110: fbec 8cbd 61d6 043e 95a7 6c3f 7609 a43c
00000120: 8a77 9e3e 3714 1c3e 0d87 493f 6620 353f
00000130: 1b1f 04c0 2535 91bf 3aa4 a7be f705 8e3f
00000140: 3900 adbe d505 77be facf 79bf 5222 9ebe
00000150: ce26 1540 56f2 32bc 94c6 d63e 9afa c4bf
00000160: 3389 f4bf 1066 aabf 915c 613f d9e7 a0be
00000170: c5f8 863f 7ef2 903f 8785 c93e c11f 593e
00000180: 902e 84be f8df 17c0 b3d0 2dc2 8521 6040
00000190: 9c48 66c0 c235 3d40 0ba4 7abf 66d3 6c3f
000001a0: be7a 013f 712a c8bf d075 153f c257 d2bd
000001b0: 7e12 283e 374b 023f 5ac4 3fbe adf4 043f
000001c0: cebe 10c0 d89c dabd 70eb 1fbf 47cb 54bf
000001d0: 464d 353f 82bc 93bf e028 96bd 679a 9c40
000001e0: a38e 9cbd 24eb a5be 3e08 51bf 98e4 ed3e
000001f0: b827 9bbe 11d9 9bbf d4db 37bf d05a 1b40
00000200: 0b7e b63f 975f 263c 8be6 e1be 1948 753c
00000210: 0b37 6c3f 8842 1240 ea54 ff3e 257b b73e
00000220: 5626 a1bf 136b b3bf 23bb e2bf 94a3 963f
00000230: 0fb4 51be 3654 863e 51d5 4840 4c4e 383d
00000240: 1107 bdbe f743 7940 cc13 8fc0 42c1 42c2
00000250: 9e8a 8e3f 4dec 3cbf d1c0 4640 c9dc a13f
00000260: b3cc 933f 2eb1 bb3f 05e7 efbf 2121 c53e
00000270: 999a 3ebf dd95 07bf 28c4 ecbf 7c89 c8bf
00000280: 8378 9dbf ff12 49c0 bcba 0640 54ed bc3e
00000290: e106 cdbf 0f96 303d c2a5 2a3f d65b d63d
000002a0: 26f3 c53f 1aae 35c0 5750 163f 0331 99be
000002b0: 75de 1440 d436 c5be 6f65 03c0 e436 28bf
000002c0: 3d3e da3f 7102 e43f 1228 babe 37be f4be
000002d0: aef9 19be a03e 6f3c d4b4 b73f d5fd 2c3f
000002e0: 1a99 1cbf 66a4 dcbf bb6d 0cc0 c068 3abf
000002f0: 614b 613f 9cc6 23bf df58 f43e b772 fe3f
00000300: 976d 753e 900d 80bf 46b8 2240 cbca 33c0
00000310: a3b5 0dc2 ea67 1340 2225 32c0 e76d 0840
00000320: 95be cc3f f702 32bf 12c8 b7be 072a 8bbf
00000330: 34d2 803f a48d a8bf a895 a73e fb61 f2be
00000340: 5d0d df3e 9cd1 1d3f 4305 46c0 2c5c b23e
00000350: e22b d5be 522d 33bf b870 363f 9310 20bd
00000360: 281c 8f3d 383f 0040 555b bfbf ed38 4cbf
00000370: 2cc0 32bf 86f8 323f ac5f 1cbf aec3 6cbf
00000380: b10e 623e a257 843f d7a6 4a40 7791 bdbf
00000390: add5 3bbf 9107 ae3d 93de dc3f 0ab3 1b40
000003a0: 0dbe 0f3d dece 373e 2ddc 84bf d4f4 82bf
000003b0: 78ae 48c0 94d9 b13f 520e d1be 97d0 da3e
000003c0: 7f25 ab3f a174 adbe 62ad a6be ff44 2b40
000003d0: a62c 58c0 8243 28c2 2618 7440 1c7c bfbf
000003e0: 3076 6840 1cf8 a6bf 9c5e d43d 0b23 a240
000003f0: 534f 1240 b332 6240 ee4f 6c3d eda2 9f3f

linear1.bias f4 [15]
-11.17616 1.2105379 0.95905584 1.6632997 0.67379105 -5.238688 -4.8974924 -23.405552
1.3796333 1.5526267 -16.751562 0.87218845 1.6130981 0.048299145 -12.803072
00000000: 8dd1 32c1 e8f2 9a3f af84 753f 01e7 d43f
00000010: 927d 2c3f 55a3 a7c0 42b8 9cc0 923e bbc1
00000020: d397 b03f 79bc c63f 3303 86c1 be47 5f3f
00000030: 007a ce3f 53d5 453d 62d9 4cc1

linear2.weight f4 [9, 15]
0.3887421 -1.7759777 -1.3604128 -1.6622431 -1.5691454 -0.10507862 0.26840797 -0.046686385
-1.4671355 -1.1041219 0.28854966 -1.2342173 -1.1200048 -1.2065476 -0.061187826 -0.0099736005
1.3209944 0.7040212 0.19694687 0.27725884 -0.20389062 0.0069891014 0.017809367 0.6911086
0.6686743 -0.08619974 0.33764946 0.8897369 0.83815515 -0.0045763724 -0.62763083 -0.50673234
-0.07730807 -0.33537886 -0.16540435 -0.07510952 0.4943716 -0.02279693 0.18715657 -0.36285704
-0.47775033 0.13561632 -0.36010844 -0.319441 -0.3418207 -0.10011719 0.5339489 0.36445668
-0.13131669 0.26699254 0.24561165 -0.20367186 -0.12677096 0.68266416 0.4351976 -0.031897634
0.4830845 1.0114744 0.88706625 -0.11581705 0.031004544 -1.3791282 -1.376347 -1.2734762
-1.8917428 -0.24344398 0.10928803 0.05694876 -1.5151916 -1.2769938 0.1815548 -0.6532657
-1.0716575 -0.9212135 -0.07650621 -0.16640691 0.072447486 0.12332268 -0.17547457 0.31320897
0.10743945 -0.54503983 -0.3212052 -0.254513 -0.10396568 -0.34339166 -0.20530403 -0.39707556
-0.2906286 0.02407605 -0.17101794 1.4498283 1.0618424 0.76364595 1.2209746 0.38547802
-0.06322396 0.05365758 0.9670813 0.95625895 -0.0783435 0.94782794 1.237345 1.0824257
-0.09924581 -0.0696788 1.8195132 0.41593218 0.87455124 0.8812801 0.4526575 -0.028960064
-0.041729502 1.3489399 1.036986 0.027395358 0.10368014 1.1169947 0.7738256 0.031824067
-0.09755745 0.43736282 0.9253084 0.2213389 0.3343511 -0.02776415 -0.103092276 0.04738355
0.42285138 0.68883777 0.031377114 0.94514734 1.2234751 1.4371331 -0.12679844
00000000: 3409 c73e 3d53 e3bf 0222 aebf 62c4 d4bf
00000010: c2d9 c8bf 7633 d7bd c56c 893e 393a 3fbd
00000020: 19cb bbbf de53 8dbf c8bc 933e d5fa 9dbf
00000030: 515c 8fbf 2770 9abf 16a0 7abd 5068 23bc
00000040: 5816 a93f bc3a 343f 71ac 493e dff4 8d3e
00000050: b4c8 50be d504 e53b f3e4 913c 7eec 303f
00000060: 3d2e 2b3f 7d89 b0bd 64e0 ac3e ccc5 633f
00000070: 5691 563f 65f5 95bb 6aac 20bf 36b9 01bf
00000080: b253 9ebd c7b6 abbe c25f 29be 05d3 99bd
00000090: 461e fd3e a1c0 babc f9a5 3f3e 66c8 b9be
000000a0: b19b f4be 01df 0a3e 2260 b8be c58d a3be
000000b0: 1f03 afbe 3e0a cdbd e0b0 083f 119a ba3e
000000c0: e277 06be 3fb3 883e 9f81 7b3e 5b8f 50be
000000d0: 3fd0 01be 14c3 2e3f 38d2 de3e 18a7 02bd
000000e0: da56 f73e fe77 813f c616 633f 7d31 edbd
000000f0: 3efd fd3c 4687 b0bf 232c b0bf 4501 a3bf
00000100: a124 f2bf 6149 79be 67d2 df3d 1a43 693d
00000110: ccf1 c1bf 8874 a3bf 80e9 393e 6c3c 27bf
00000120: 132c 89bf a6d4 6bbf 4aaf 9cbd 9366 2abe
00000130: 595f 943d 9a90 fc3d 9baf 33be ed5c a03e
00000140: 3709 dc3d bb87 0bbf 0275 a4be 874f 82be
00000150: f5eb d4bd 08d1 afbe 383b 52be 7d4d cbbe
00000160: 46cd 94be 233b c53c 541f 2fbe f993 b93f
00000170: 74ea 873f 4d7e 433f e548 9c3f 605d c53e
00000180: 907b 81bd 0dc8 5b3d a492 773f 63cd 743f
00000190: 8f72 a0bd daa4 723f 5261 9e3f ed8c 8a3f
000001a0: 6341 cbbd c2b3 8ebd cfe5 e83f 10f5 d43e
000001b0: 97e2 5f3f 939b 613f b9c2 e73e a83d edbc
000001c0: 8eec 2abd 10aa ac3f f5bb 843f 3b6c e03c
000001d0: 4156 d43d aff9 8e3f 6f19 463f f459 023d
000001e0: 33cc c7bd 05ee df3e 03e1 6c3f aaa6 623e
000001f0: 1130 ab3e a571 e3bc 0b22 d3bd 4115 423d
00000200: fa7f d83e ac57 303f 4a85 003d 2df5 713f
00000210: d59a 9c3f faf3 b73f 73d7 01be

linear2.bias f4 [9]
3.024112 -5.8902802 1.1704733 -5.2331247 3.0960524 2.9652584 -6.502305 -6.2717476
-6.169738
00000000: 0d8b 4140 2d7d bcc0 12d2 953f c275 a7c0
00000010: b925 4640 cbc6 3d40 e212 d0c0 28b2 c8c0
00000020: 7e6e c5c0

linear3.weight f4 [2, 9]
1.1149654 -0.62439626 0.29696572 -1.2488579 1.1192366 0.52940756 -0.7839815 -0.45583734
-0.881176 -1.2088572 0.29669282 -0.050330967 1.0031627 -1.192609 -0.5949667 0.23680331
0.6029656 0.45039368
00000000: 30b7 8e3f 6fd8 1fbf e40b 983e 93da 9fbf
00000010: 2543 8f3f 4187 073f 03b3 48bf 8363 e9be
00000020: c094 61bf d5bb 9abf 1fe8 973e d827 4ebd
00000030: a367 803f 69a7 98bf bd4f 18bf 917c 723e
00000040: f45b 1a3f 009a e63e

linear3.bias f4 [2]
10.390666 -10.570292
00000000: 2b40 2641 eb1f 29c1
